model.ckpt (torch_old, 119116 bytes, 14 tensors)

layer1.0.weight f4 [16, 1, 5, 5]
00000000: 2be9 2b3e 602a 10be d464 123d 908c b5bd
00000010: 984c 09bd 12c1 8c3d f269 fb3d 91e2 1c3e
00000020: c6d4 17be f8bf 053d d7e5 213e 573e d2bd
00000030: 396b 363e d542 1c3e cc6d 603d 6099 0f3d
00000040: bc70 8abd 4026 363d f02a c73c 005e bdbb
00000050: 9a72 943d bd19 11be 8002 b53c e3f4 e9bd
00000060: d697 b13d 0c33 64bd 0015 193c 8e0a a23d
00000070: 3d77 113e f0e3 afbc aa72 42be 8c0f 4e3d
00000080: e3c5 c9bd 6322 363e a0c8 01bd 340d 74bd
00000090: 602f dcbb 35dd 3a3e f01c d3bc 9a45 9ebd
000000a0: 3053 bfbc 7afc cebd a068 0ebd 201b 69bc
000000b0: d211 ec3d 007b f6bb c5c9 003e 08b1 30bd
000000c0: d86e e63c c39a e8bd 0baf 34be 73bb 2dbe
000000d0: 57fb 463e 14ce 84bd 7f47 4cbe 7da8 ebbd
000000e0: 1982 483e 858f 263e d494 84bd 73e1 303e
000000f0: d89f 35bd 0ef8 fa3d 189d 143d 38ea 2b3d
00000100: d6a5 f63d 13b9 46be 0af8 93bd c483 5f3d
00000110: 2e77 883d 5127 2d3e 3740 363e 28d2 a33c
00000120: 9339 0c3e d3ca 9dbd 00dc e9ba 166b 25be
00000130: c844 5bbd 90f4 953c 82c5 863d d661 23be
00000140: 2e97 f43d 6d7f 423e fdc7 9dbd 5c37 653d
00000150: a0fe 47bd 7018 33be 581d 273d 9474 50bd
00000160: 1821 40bd ca81 3bbe 316d 463e 973d c1bd
00000170: bed3 12be 1875 913c 2762 163e 5d23 4abe
00000180: 6d5c f1bd c010 23be c005 ab3c 195c 4b3e
00000190: 6f83 3f3e 9d6c c9bd 2c56 5abd 14b7 6dbd
000001a0: 0f84 0b3e 375d 35be fd7e 47be d213 11be
000001b0: 1a72 b3bd 396b 323e 08b4 52bd cca5 1d3d
000001c0: 0068 603c 82a1 933d 802b 663c 8003 9d3c
000001d0: ff0c 113e 20c5 31bc 3d27 02be c09f e43c
000001e0: 8d5a ffbd 60b8 af3b d836 3fbe 6075 3cbe
000001f0: 6676 1cbe 7a6b f93d bdaf 3fbe f43e 733d
00000200: 33a0 27be e546 2ebe a372 ddbd 2c90 2d3d
00000210: 1a6f 43be 4984 163e f44b 7f3d 60bc ffbd
00000220: 61b0 363e e545 3ebe cd4c a9bd a29f 4abe
00000230: ea4e 843d a017 823b 2213 e93d ba5c 3cbe
00000240: f14d 163e 82ce fe3d 03b0 e4bd e5cc 0ebe
00000250: 9ccb 0abe 192f 143e 720e c03d 67f8 483e
00000260: d493 19bd 80aa c63a 9a47 b13d 10f3 ff3c
00000270: ca1e 843d 2deb bdbd e2d4 16be 004e 583c
00000280: 680c 343d eccd 1d3d 600c 08be b5fd 0f3e
00000290: 4359 48be 00bd 06bc cb54 28be 1603 aa3d
000002a0: 750e 143e 4c8a 34bd 8d75 0ebe a0aa fdbb
000002b0: 30f0 943c a284 843d 9fb7 213e f2f3 d33d
000002c0: 8a70 bc3d 80c7 3a3c a042 a9bd 51fe 0f3e
000002d0: d0d7 943c 7064 22be a21a cc3d 50fa 55bc
000002e0: 0dbc bbbd e24a ce3d 2070 703c f0ec 963c
000002f0: 88f2 30be 3502 32be acfd 023d 5f08 343e
00000300: d654 98bd 8063 463d a02a 7f3c 313b 143e
00000310: e0b1 19be 53ff 1b3e cf13 3a3e 8077 e6bc
00000320: de16 9a3d acb5 50bd 60a0 cfbb ac15 65bd
00000330: afa2 2ebe ce36 bf3d d6eb a63d a53a 0fbe
00000340: 700d 08be 58a7 4cbd c018 0dbb 40c3 d4bb
00000350: 225e e23d ccb7 043d 5892 11be 0018 343b
00000360: 6820 e6bc 5d66 d7bd cad7 873d 3b3f 063e
00000370: 12da c63d 719c 053e fb6e 18be e02e 4cbe
00000380: f26d 20be b828 103d 8bee 13be 7517 2abe
00000390: 5a15 d1bd bb10 453e 1a01 9fbd d34f 0dbe
000003a0: 1848 3ebe d0cb 67bc 781b 5cbd 1591 22be
000003b0: 5b49 1dbe ec3b 423d d8e6 293d 8018 5d3c
000003c0: 004d 14bc f580 42be f5cb 07be 0011 4b3d
000003d0: 9429 07be ed14 30be ae2b 10be b098 4bbc
000003e0: f555 053e 18f0 23bd a842 3f3d 91d1 113e
000003f0: 78c2 58bd 68fe 19be 6dda 9cbd e771 bebd
0.16788165 -0.14078665 0.03574069 -0.08864701 -0.03352031 0.06872763 0.12276067 0.15320803
-0.1482726 0.03265378 0.15810333 -0.10265797 0.1781434 0.1525987 0.05479221 0.03505838
-0.067597836 0.04447007 0.024312466 -0.005779028 0.07248421 -0.14169975 0.022095919 -0.114236616
0.086715385 -0.055712745 0.009343386 0.079121694 0.14205642 -0.021470994 -0.18989053 0.050307795
-0.09852197 0.17786555 -0.03168547 -0.059582904 -0.0067195147 0.18248446 -0.025770634 -0.07728119
-0.023355097 -0.1010675 -0.034767747 -0.0142276585 0.115268365 -0.007521987 0.12576969 -0.04313758
0.028129026 -0.113576435 -0.17644899 -0.16966037 0.19431816 -0.06484619 -0.19949149 -0.11506746
0.19580878 0.16265686 -0.06473699 0.17273502 -0.044341892 0.12254344 0.03628263 0.041971415
0.120433494 -0.19406538 -0.07225044 0.05456902 0.06663357 0.1690953 0.17797934 0.019997671
0.13693838 -0.07704701 -0.0017842054 -0.16154131 -0.05353239 0.018305093 0.065806404 -0.1595529
0.11942898 0.18993922 -0.0770416 0.055960998 -0.048826814 -0.17489791 0.04079947 -0.050892428
-0.04690656 -0.1831123 0.1937759 -0.094355755 -0.14338586 0.01775603 0.1468588 -0.19740053
-0.11785207 -0.15924358 0.020876765 0.19859351 0.18702482 -0.098351695 -0.053304836 -0.058035925
0.13624595 -0.1771134 -0.19482036 -0.14167717 -0.087619975 0.17423715 -0.051441222 0.038488194
0.0136966705 0.072085395 0.014048457 0.019166708 0.14165114 -0.010850221 -0.1271028 0.027908206
-0.12468443 0.0053625554 -0.18673265 -0.1840415 -0.1527954 0.12178703 -0.18719383 0.05938621
-0.16369705 -0.17019232 -0.10812881 0.04237382 -0.1908535 0.146989 0.062328294 -0.124871016
0.1784072 -0.1858135 -0.08266602 -0.19787458 0.06460364 0.0039701015 0.113806024 -0.18394747
0.1467817 0.12441732 -0.11166384 -0.13945349 -0.13554233 0.14471091 0.09377755 0.19626008
-0.037494496 0.0015157014 0.08656235 0.03124383 0.06451185 -0.09273372 -0.14729646 0.01320219
0.043957144 0.03852646 -0.1328597 0.14061625 -0.195653 -0.008223772 -0.16438596 0.0830137
0.1445864 -0.044077203 -0.1391203 -0.0077412874 0.018180937 0.0647061 0.15792702 0.10349263
0.092011526 0.011400104 -0.08264661 0.14061858 0.018169314 -0.15858626 0.09966017 -0.013060167
-0.09166727 0.100728765 0.01467517 0.018423527 -0.17280018 -0.17383654 0.0319802 0.17581318
-0.07438056 0.048434734 0.015574127 0.14475705 -0.1500926 0.15234117 0.18171619 -0.028133154
0.07523893 -0.050954506 -0.006336257 -0.05592887 -0.17054246 0.09336625 0.08150451 -0.13987215
-0.13286376 -0.04996428 -0.0021529645 -0.006493002 0.11053111 0.032401845 -0.14215982 0.0027480125
-0.028091624 -0.10517571 0.06632955 0.13110058 0.09709562 0.13047959 -0.14886086 -0.19939756
-0.15666941 0.035195082 -0.14446466 -0.1661051 -0.102091506 0.19244663 -0.07763882 -0.13799982
-0.18582189 -0.014147714 -0.053737134 -0.15875657 -0.15360014 0.047420427 0.041479915 0.013494611
-0.009051561 -0.18994506 -0.13261397 0.04957676 -0.13199455 -0.17195483 -0.14079162 -0.01242654
0.13021071 -0.040023893 0.046694428 0.142401 -0.052919835 -0.15038455 -0.07658849 -0.09299069

layer1.0.bias f4 [16]
00000000: 1ef6 18be d186 033e 74f6 083d 1835 813c
00000010: 2cb8 75bd b303 073e 687d d33c 80d2 24be
00000020: d887 413d 9a39 d53d e040 44bd e117 163e
00000030: 47a4 3f3e 7d5a 313e 2dcb 43be 7f38 3ebe
-0.14937636 0.12844397 0.03343816 0.015772387 -0.059990093 0.13185005 0.025816634 -0.16095924
0.04724869 0.10411377 -0.047913432 0.14657547 0.1871501 0.17319675 -0.19120474 -0.18576239

layer1.1.weight f4 [16]
00000000: 0000 803f 0000 803f 0000 803f 0000 803f
00000010: 0000 803f 0000 803f 0000 803f 0000 803f
00000020: 0000 803f 0000 803f 0000 803f 0000 803f
00000030: 0000 803f 0000 803f 0000 803f 0000 803f
1.0 1.0 1.0 1.0 1.0 1.0 1.0 1.0
1.0 1.0 1.0 1.0 1.0 1.0 1.0 1.0

layer1.1.bias f4 [16]
00000000: 0000 0000 0000 0000 0000 0000 0000 0000
00000010: 0000 0000 0000 0000 0000 0000 0000 0000
00000020: 0000 0000 0000 0000 0000 0000 0000 0000
00000030: 0000 0000 0000 0000 0000 0000 0000 0000
0.0 0.0 0.0 0.0 0.0 0.0 0.0 0.0
0.0 0.0 0.0 0.0 0.0 0.0 0.0 0.0

layer1.1.running_mean f4 [16]
00000000: 0000 0000 0000 0000 0000 0000 0000 0000
00000010: 0000 0000 0000 0000 0000 0000 0000 0000
00000020: 0000 0000 0000 0000 0000 0000 0000 0000
00000030: 0000 0000 0000 0000 0000 0000 0000 0000
0.0 0.0 0.0 0.0 0.0 0.0 0.0 0.0
0.0 0.0 0.0 0.0 0.0 0.0 0.0 0.0

layer1.1.running_var f4 [16]
00000000: 0000 803f 0000 803f 0000 803f 0000 803f
00000010: 0000 803f 0000 803f 0000 803f 0000 803f
00000020: 0000 803f 0000 803f 0000 803f 0000 803f
00000030: 0000 803f 0000 803f 0000 803f 0000 803f
1.0 1.0 1.0 1.0 1.0 1.0 1.0 1.0
1.0 1.0 1.0 1.0 1.0 1.0 1.0 1.0

layer2.0.weight f4 [32, 16, 5, 5]
00000000: 2888 7abc 801c aebb 9a2a 8cbc faa3 c6bc
00000010: b70f 1f3d a441 723c fa49 a93c c7bf f9bc
00000020: 87d7 d6bc 1ab8 abbc 8068 3a3c 497c 133d
00000030: cc43 86bc 6cd1 4bbc 30c8 15bd 50f8 4bbb
00000040: bae5 2bbd 5aa9 46bd a059 c33a 1c9d 573c
00000050: 2db7 23bd d368 e0bc 3613 0ebd bacf 1fbd
00000060: 5800 123c 7037 e63b cb6d 3cbd 900b e0bb
00000070: 6ae7 36bd e7c3 403d 8002 18ba 9d51 203d
00000080: 03f2 f0bc 80b7 49bc 6639 973c 62e9 03bd
00000090: 8078 d9bb dee1 04bd 6d9f ecbc 00d8 bbba
000000a0: 0769 a3bc ca5c df3c 347a 07bc 9d49 26bd
000000b0: 32f7 3bbd b392 35bd 2ca6 5b3c 2077 203b
000000c0: b092 e3bb e0ab 90bc 65cb 1fbd 6046 d53a
000000d0: 93f9 173d 802e 423b d0c3 b2bc 366a fe3c
000000e0: 688f 3dbd f513 413d 2c78 493c e0d2 103b
000000f0: d039 56bb b26b eb3c 48b4 223c e0e0 dabc
00000100: 4798 183d bd12 473d 7a52 f0bc 1feb 193d
00000110: 4595 26bd 5b1d 053d 80b1 f3bb a11e 143d
00000120: 98a3 07bc e027 65bc b1ef 113d 16ea 25bd
00000130: 4a8f e03c 130f 2a3d 60ef a43a b0f2 bcbc
00000140: 9269 31bd 7a69 35bd 4858 6bbc 27a9 013d
00000150: 2115 0a3d 0b84 16bd 00e8 b8bb 938f 213d
00000160: 8cbd 1d3c 03d9 acbc 6bf5 4abd f23f d33c
00000170: c098 d0bc e815 f7bb 80a6 76bb f48b 3e3c
00000180: 980e 68bc 8174 2f3d f33c afbc 9832 8a3b
00000190: b8a7 6fbc a0a8 16bd 74ff 0c3c 0eba e73c
000001a0: 4dd2 f3bc 60ab b83a 8606 d13c 1f95 32bd
000001b0: 2073 3e3c 4a43 a4bc a86d f3bb 6e9d d63c
000001c0: 1da8 d6bc 8086 56bc 12e1 d53c 7908 363d
000001d0: e0d4 58bc 6665 1cbd 0789 2fbd c4fe 7a3c
000001e0: 10ed cfbb 171f 303d 2a8a fd3c 5ae1 f23c
000001f0: 8655 c63c 0369 313d f7d7 403d e0cd 63bc
00000200: 407d 563a 402b ca3b 74b7 403c f4c8 65bc
00000210: 8dfc 1bbd 2304 a9bc 680d 2c3c d1c5 4c3d
00000220: 8d3b dcbc 2898 243c ee10 1fbd 85ca 1a3d
00000230: e5ef 23bd 9a6c 26bd 20bb b3bc 2341 18bd
00000240: f0db 3bbd 92e7 2abd c584 15bd 06d1 b23c
00000250: b4db 42bc 9e7e 983c 0b14 113d abb6 22bd
00000260: 3006 40bb 60c7 743b 200e 00bb cc59 80bc
00000270: 1808 483c 8de4 1f3d 6365 3fbd 3426 683c
00000280: 8c81 5fbc 00b3 d0bc a425 783c 143e 5c3c
00000290: a245 10bd 1026 d93b 900a 4cbd 00b3 cfb9
000002a0: caba be3c 0d72 f4bc 7848 36bd ff34 2d3d
000002b0: 7281 e93c 1e92 973c f2b0 ae3c b9ec 053d
000002c0: c035 a7bb b417 4cbc 0ad8 f0bc ee76 f13c
000002d0: 7bb1 1b3d 4b31 2f3d 443f 5b3c d9ba 2c3d
000002e0: c2e4 48bd f077 c0bb 585e 0abd ba7f d1bc
000002f0: e8d1 04bc 063d b63c 0b0b 46bd 985f 73bc
00000300: 2606 b23c a8b5 033c a0ee ec3a 48f7 66bc
00000310: 9852 67bc 9bfe 243d 40f4 43bd d0db 513b
00000320: c35b d8bc 85cf 1e3d 680d 46bd 1f09 013d
00000330: 6031 0f3c 886a 3cbc f4dc 0e3c 9017 0dbd
00000340: 66f2 98bc f621 ec3c 2fbb 273d a06f f9ba
00000350: 9002 1ebd b625 f93c 820b 9d3c f5b8 253d
00000360: 4013 7ebc a637 883c ba24 81bc 5226 e33c
00000370: 3655 c43c 3870 143c 17c2 0b3d 7579 233d
00000380: 1aa4 00bd 6010 e6ba 5bd4 1cbd 69d6 233d
00000390: e4e8 5c3c a239 ca3c 978e ccbc 00db 45bb
000003a0: a41d 4d3c 020e 873c c7c4 313d 07a1 363d
000003b0: 66ac 86bc cde6 1e3d e6c4 dd3c a4b8 92bc
000003c0: 270f a2bc 0024 d43b 5b09 1dbd c083 d13b
000003d0: 755e 473d e674 ef3c 8585 153d 921c 4abd
000003e0: a019 f0bc 06da 953c 3082 7d3b 1063 cbbc
000003f0: 0ad2 e33c 9d5d 07bd e61e ab3c 7d76 333d
-0.015291251 -0.005313456 -0.017110158 -0.024248112 0.038833346 0.014786158 0.020665158 -0.030486954
-0.026225818 -0.02096181 0.011377454 0.0360072 -0.01638975 -0.012440067 -0.036567867 -0.0031123348
-0.04196713 -0.04850135 0.001490403 0.013160016 -0.039969612 -0.027393734 -0.03468629 -0.039016463
0.008911215 0.0070256516 -0.046003144 -0.006837316 -0.044654287 0.047061827 -0.00057987124 0.039140332
-0.029412275 -0.012311816 0.018459987 -0.032204993 -0.006636679 -0.032441966 -0.028884614 -0.0014331341
-0.019947542 0.027265925 -0.008268882 -0.040597547 -0.04589004 -0.044329356 0.013406318 0.0024485067
-0.0069449767 -0.017660081 -0.03901233 0.0016271584 0.037103247 0.0029629767 -0.021821886 0.031056505
-0.04627934 0.047138173 0.012296718 0.0022098348 -0.0032688268 0.028737877 0.009930678 -0.026718557
0.037254598 0.048601855 -0.029336203 0.037577745 -0.0406697 0.0324987 -0.007436931 0.036162023
-0.00827875 -0.013986558 0.03562898 -0.040506445 0.027412076 0.041518282 0.0012583546 -0.023064941
-0.04331357 -0.044290043 -0.01436431 0.031655457 0.033711556 -0.03674702 -0.005642891 0.039443564
0.009627711 -0.021099573 -0.049550455 0.025787327 -0.025463462 -0.007540453 -0.0037635863 0.011630047
-0.014163636 0.042835716 -0.021391368 0.004217457 -0.01462739 -0.036781907 0.008605827 0.02828696
-0.029763365 0.001408916 0.025515806 -0.043599244 0.011624128 -0.020051617 -0.0074288435 0.026198115
-0.02620321 -0.013093591 0.026108298 0.044441674 -0.013234347 -0.03818264 -0.04285529 0.01531953
-0.0063453987 0.0429984 0.03094967 0.029648472 0.024210703 0.043313038 0.04708096 -0.013904065
0.0008182116 0.0061697066 0.011762489 -0.014024962 -0.038082648 -0.020631855 0.010501243 0.04999334
-0.026883865 0.0100460425 -0.038834505 0.037790794 -0.040023703 -0.040630914 -0.021939814 -0.037171494
-0.045864046 -0.04172475 -0.036503572 0.021828186 -0.011893202 0.018615063 0.035419505 -0.039724987
-0.0029300563 0.0037350282 -0.001953967 -0.015667818 0.012208961 0.039036322 -0.04672755 0.014169265
-0.013641726 -0.025475979 0.015145693 0.013442535 -0.035222657 0.006626852 -0.04981476 -0.00039615482
0.023282427 -0.02983954 -0.044502705 0.04228687 0.028504107 0.018502291 0.021324608 0.03269646
-0.005102843 -0.012456823 -0.02939989 0.029475655 0.038011055 0.04277162 0.013381783 0.04217038
-0.049046285 -0.0058736727 -0.03378138 -0.0255736 -0.008106686 0.022245895 -0.048350375 -0.014854334
0.021731447 0.008038916 0.0018076487 -0.014097042 -0.014118813 0.040281873 -0.047840357 0.0032021888
-0.026410943 0.038772125 -0.04835263 0.03150284 0.008739799 -0.011500008 0.0087196715 -0.0344463
-0.018670272 0.028824788 0.040949997 -0.0019030459 -0.038576663 0.03041349 0.019170526 0.040459592
-0.015507519 0.016628098 -0.015764583 0.027728233 0.023966413 0.009059958 0.034120645 0.039910752
-0.0314065 -0.0017552488 -0.038288455 0.0399994 0.01348326 0.024685685 -0.024970336 -0.0030190349
0.012519274 0.016486172 0.043400552 0.04458716 -0.016439628 0.038794328 0.027071428 -0.01791031
-0.019782616 0.006474018 -0.038339 0.0063938797 0.048674066 0.029230546 0.036504287 -0.049343653
-0.029309094 0.018292438 0.0038682334 -0.02482751 0.027810115 -0.03304826 0.020888757 0.04381417

layer2.0.bias f4 [32]
00000000: 846b 703c 0c31 31bc dec1 953c 7df7 22bd
00000010: 4dbf 1d3d 20bd 32bd ec2d 7d3c e709 0a3d
00000020: d021 ecbb 8aa9 963c 5044 0bbb b40e 28bc
00000030: 1a75 bdbc 35b6 4a3d eac9 9d3c 26c4 883c
00000040: 22a6 48bd 58e6 7abc c296 843c 12b0 fd3c
00000050: 0df3 13bd 2dfe 23bd 7d00 e3bc 1983 463d
00000060: 6d3d 253d 22ac b03c 50aa e3bb b231 813c
00000070: fa68 f3bc 2690 8dbc 67cb f6bc 129f 873c
0.014674071 -0.010814916 0.01828092 -0.039786804 0.038512517 -0.043637395 0.015452843 0.03370085
-0.007206179 0.01839139 -0.0021250434 -0.010257412 -0.023127127 0.049490172 0.01926132 0.016695093
-0.04898656 -0.015313707 0.016185168 0.030967746 -0.036120463 -0.040037323 -0.027710194 0.04846487
0.040341783 0.021566454 -0.006947793 0.015770767 -0.029713143 -0.01728065 -0.030126287 0.016555343

layer2.1.weight f4 [32]
00000000: 0000 803f 0000 803f 0000 803f 0000 803f
00000010: 0000 803f 0000 803f 0000 803f 0000 803f
00000020: 0000 803f 0000 803f 0000 803f 0000 803f
00000030: 0000 803f 0000 803f 0000 803f 0000 803f
00000040: 0000 803f 0000 803f 0000 803f 0000 803f
00000050: 0000 803f 0000 803f 0000 803f 0000 803f
00000060: 0000 803f 0000 803f 0000 803f 0000 803f
00000070: 0000 803f 0000 803f 0000 803f 0000 803f
1.0 1.0 1.0 1.0 1.0 1.0 1.0 1.0
1.0 1.0 1.0 1.0 1.0 1.0 1.0 1.0
1.0 1.0 1.0 1.0 1.0 1.0 1.0 1.0
1.0 1.0 1.0 1.0 1.0 1.0 1.0 1.0

layer2.1.bias f4 [32]
00000000: 0000 0000 0000 0000 0000 0000 0000 0000
00000010: 0000 0000 0000 0000 0000 0000 0000 0000
00000020: 0000 0000 0000 0000 0000 0000 0000 0000
00000030: 0000 0000 0000 0000 0000 0000 0000 0000
00000040: 0000 0000 0000 0000 0000 0000 0000 0000
00000050: 0000 0000 0000 0000 0000 0000 0000 0000
00000060: 0000 0000 0000 0000 0000 0000 0000 0000
00000070: 0000 0000 0000 0000 0000 0000 0000 0000
0.0 0.0 0.0 0.0 0.0 0.0 0.0 0.0
0.0 0.0 0.0 0.0 0.0 0.0 0.0 0.0
0.0 0.0 0.0 0.0 0.0 0.0 0.0 0.0
0.0 0.0 0.0 0.0 0.0 0.0 0.0 0.0

layer2.1.running_mean f4 [32]
00000000: 0000 0000 0000 0000 0000 0000 0000 0000
00000010: 0000 0000 0000 0000 0000 0000 0000 0000
00000020: 0000 0000 0000 0000 0000 0000 0000 0000
00000030: 0000 0000 0000 0000 0000 0000 0000 0000
00000040: 0000 0000 0000 0000 0000 0000 0000 0000
00000050: 0000 0000 0000 0000 0000 0000 0000 0000
00000060: 0000 0000 0000 0000 0000 0000 0000 0000
00000070: 0000 0000 0000 0000 0000 0000 0000 0000
0.0 0.0 0.0 0.0 0.0 0.0 0.0 0.0
0.0 0.0 0.0 0.0 0.0 0.0 0.0 0.0
0.0 0.0 0.0 0.0 0.0 0.0 0.0 0.0
0.0 0.0 0.0 0.0 0.0 0.0 0.0 0.0

layer2.1.running_var f4 [32]
00000000: 0000 803f 0000 803f 0000 803f 0000 803f
00000010: 0000 803f 0000 803f 0000 803f 0000 803f
00000020: 0000 803f 0000 803f 0000 803f 0000 803f
00000030: 0000 803f 0000 803f 0000 803f 0000 803f
00000040: 0000 803f 0000 803f 0000 803f 0000 803f
00000050: 0000 803f 0000 803f 0000 803f 0000 803f
00000060: 0000 803f 0000 803f 0000 803f 0000 803f
00000070: 0000 803f 0000 803f 0000 803f 0000 803f
1.0 1.0 1.0 1.0 1.0 1.0 1.0 1.0
1.0 1.0 1.0 1.0 1.0 1.0 1.0 1.0
1.0 1.0 1.0 1.0 1.0 1.0 1.0 1.0
1.0 1.0 1.0 1.0 1.0 1.0 1.0 1.0

fc.weight f4 [10, 1568]
00000000: 47dd 9fbc b0ec 9b3b d48c 973b 92e4 b6bc
00000010: cc23 323c f7e9 a9bc ed9f 20bc 1ae6 c43c
00000020: 7946 2fbc 2c3a afbb 2c46 243c 3025 be3b
00000030: c06d b23c b41f c43c c4ba 143c f4dd c73c
00000040: da8e c23c 3444 553c c0a6 a7ba 1d7f 7fbc
00000050: dbea ccbc 029d 98bc f453 c7bb 40b8 953c
00000060: 5c5b 653c ac25 e8bb 6a70 863c 80f7 04b9
00000070: cc6e a0bc 6e0b ad3c f0cc 413c d42b 4a3c
00000080: c460 1d3c a814 8f3c d130 6cbc 8ee6 c23c
00000090: 00d5 6b39 84c8 b4bc 1056 583c 5895 d73b
000000a0: 941b 03bc 9012 203c b825 ffbb c0e3 5d3c
000000b0: 24ac b23c 9037 35bb 0089 46ba 8499 c5bc
000000c0: 91bb 57bc 0429 5c3c f6f4 6dbc 5b36 c6bc
000000d0: 3a1e aabc 3e32 a93c 2c71 f7bb e03c 3bbc
000000e0: 5b4e 8bbc 5cbe b13c 2ae1 aa3c 0439 2e3c
000000f0: a194 cbbc b6d2 943c 26c1 8c3c 901a bdbc
00000100: fc5c 2a3c 682a 00bb 96a8 aebc 48fc 4fbb
00000110: 4457 5fbc 807d 4a3c ad85 acbc 7c53 b8bc
00000120: fb61 61bc ccb1 633c e611 833c e860 673b
00000130: ff92 9dbc 90d2 b43c 2c38 163c 5e41 b33c
00000140: 38cf 2a3b f49d 383c 3878 a7bb c4e2 983b
00000150: e088 59ba 88d1 423c a8b7 bb3c 08a4 803c
00000160: bc61 973c 80b8 2f3a 4877 af3c 1023 0bbc
00000170: a8d9 1d3c 60bc 0d3b 7cc9 0c3c 9034 a23b
00000180: d4af 3d3c e883 123c 6868 183c d41f 103c
00000190: 82e0 c3bc 60a2 8f3c 9c85 8d3c 60a8 4a3b
000001a0: 9436 813b c486 993c ae75 14bc 7802 bbbb
000001b0: 2867 983c d8a3 103b 60e5 f23b 60ed b0bb
000001c0: a1bd c3bc 909d ca3b 0065 59b9 648c 8f3c
000001d0: aef0 b03c 82b4 bb3c 0c06 2e3c 88fd 83bb
000001e0: 3c30 1a3c 8cc4 4c3c 5ccb bb3c a04e 1a3a
000001f0: aa6f 92bc 9c9e acbb 7c15 9bbc bc0b babc
00000200: ffed bcbc 6841 863c 14b3 22bc a476 ccbc
00000210: 6063 9dbb 54fb 99bc b457 673c 88dc 36bb
00000220: 7c02 bdbb f01f a63c a048 903a e6c3 cebc
00000230: 4087 91b9 0071 c93b 7000 a2bc f0f8 703c
00000240: 08b3 393c 5dd2 92bc 006a 0eba f8cf bb3c
00000250: 100b ff3b f864 553c 60e8 80ba 4557 39bc
00000260: 4058 ed3a 30c8 17bb c062 bd3b d838 ac3c
00000270: 10b8 11bc d054 67bb 7fd7 bbbc 4cd7 2cbc
00000280: 4570 c3bc d605 85bc 60ca b6bc 9843 ad3c
00000290: 285a 87bb b44d c0bc c50c 45bc f007 97bb
000002a0: b0cc cdba e0df 28ba 5ae6 ae3c e0e7 ee3a
000002b0: fc21 c33c 8adb c9bc 00fb 1fb9 a68e 803c
000002c0: 58d5 443c b22d 24bc ed46 54bc 24d9 533c
000002d0: 94d3 aabb a61d a83c 1eea a03c 7a5b abbc
000002e0: f82f 543c e8e3 7f3c 47a5 aebc 28d8 cc3c
000002f0: dac3 55bc d4ce 4d3c 2050 a8bb 20c8 683a
00000300: e854 d8bb 9839 9fbb 1036 c4bb f3eb 99bc
00000310: c002 913c 00e2 b039 78cf 32bb 82e5 06bc
00000320: f73e 75bc 7c95 ebbb ec5c 23bc 1cbb 263c
00000330: 4c0e 7f3c 1cdf afbb ecef 633c 7c17 753c
00000340: acd0 693c 04e3 343c c0d7 ccba e409 22bc
00000350: dc12 593c 78bf b73c 9017 c03b 14bb 993c
00000360: f254 abbc 28c0 413b febd babc 4527 48bc
00000370: 1843 853b 9095 f1ba 25cf a6bc b015 823c
00000380: 6eb6 cb3c 5870 bb3b 3203 a73c f0e1 e0ba
00000390: 2b7d c8bc 986d a43b 1cdc 733c a87c 753b
000003a0: 30e9 48bb 7ab6 b33c 0e13 28bc d2c9 8fbc
000003b0: a05c a23a 30e1 cdbb 9cee adbc d40a 223c
000003c0: ce4d 80bc 4455 7e3c 5666 07bc 35b3 5dbc
000003d0: a846 1a3b a8c4 9c3c e8ad 673c f876 bcbc
000003e0: f889 c63b a493 bf3c 94ed 623c c034 e33b
000003f0: a0f0 aeba a8c3 46bb 72f8 55bc 963f 25bc
-0.019514693 0.00475844 0.0046249423 -0.022325788 0.010872792 -0.020741446 -0.009803754 0.024035502
-0.010697954 -0.005347511 0.010026496 0.005802773 0.021780849 0.023940898 0.0090777315 0.024397828
0.023749758 0.013016749 -0.0012790784 -0.015594271 -0.025014332 -0.018629555 -0.006083006 0.018276334
0.013998833 -0.007084569 0.016411025 -0.00012680702 -0.019584082 0.021123614 0.011828646 0.012339551
0.00960559 0.017465904 -0.014415936 0.023791578 0.00022490695 -0.02206827 0.013204113 0.0065790825
-0.008002181 0.009770051 -0.007786479 0.013543069 0.021810599 -0.0027651526 -0.0007573515 -0.024121054
-0.013167278 0.013437513 -0.014523735 -0.02419584 -0.020766366 0.02065384 -0.007551333 -0.011428088
-0.017005136 0.021697216 0.02085932 0.010633711 -0.024851145 0.018166881 0.017181944 -0.023083955
0.010398146 -0.0019556526 -0.021320622 -0.0031736065 -0.013631646 0.012359023 -0.021059835 -0.022500746
-0.0137562705 0.013897371 0.015999746 0.0035305563 -0.019235132 0.02207306 0.009168666 0.021881755
0.0026063453 0.011268128 -0.0051107667 0.0046657044 -0.0008298289 0.011890776 0.022914723 0.015703216
0.01847922 0.0006703213 0.021419182 -0.008492246 0.009634413 0.0021627173 0.0085929595 0.0049501136
0.011577565 0.008942582 0.009302236 0.008796651 -0.023910765 0.017533481 0.017275624 0.0030923113
0.003943274 0.01874102 -0.00906126 -0.0057070814 0.018603876 0.0022070315 0.0074125975 -0.005399391
-0.023894133 0.0061833337 -0.00020732358 0.017522998 0.02159914 0.022913221 0.010621559 -0.004028026
0.009410914 0.012498032 0.022924118 0.000588635 -0.017875511 -0.005267931 -0.018931143 -0.022710674
-0.023062704 0.01638861 -0.009930391 -0.024958916 -0.004803106 -0.0187966 0.014120031 -0.0027902443
-0.0057681184 0.0202789 0.0011007972 -0.025239896 -0.00027757324 0.006147504 -0.0197756 0.014707789
0.011334188 -0.017922575 -0.00054326653 0.022926316 0.007783301 0.013024561 -0.0009834878 -0.011312311
0.0018107966 -0.0023160093 0.005779594 0.021023199 -0.008893982 -0.0035298355 -0.022929905 -0.010549378
-0.023857245 -0.016238134 -0.022313297 0.021150395 -0.0041306205 -0.023474552 -0.01202697 -0.0046091005
-0.001570126 -0.00064420514 0.021350075 0.0018227063 0.023819916 -0.024640817 -0.00015256926 0.01569302
0.012013756 -0.01002066 -0.012956363 0.012930188 -0.0052132104 0.02052195 0.019642886 -0.020917643
0.01295089 0.015618302 -0.021319045 0.025005415 -0.013047183 0.012561519 -0.005136505 0.00088799186
-0.0066019185 -0.0048591606 -0.00598789 -0.018789267 0.017701507 0.0003373772 -0.0027284306 -0.00823343
-0.014968625 -0.007189451 -0.009970885 0.010176446 0.0155673735 -0.005367173 0.013912182 0.014959212
0.014270943 0.011040453 -0.0015628263 -0.009890053 0.013249125 0.022430167 0.005862184 0.018765964
-0.020914529 0.0029563997 -0.022795673 -0.012216394 0.004066836 -0.0018431414 -0.020362446 0.015879482
0.024867263 0.0057201795 0.020387266 -0.0017157178 -0.024473747 0.0050179474 0.014884021 0.0037458334
-0.0030656569 0.021937598 -0.010258449 -0.01755229 0.0012387224 -0.006282948 -0.021231942 0.009890277
-0.0156621 0.015523259 -0.008264145 -0.013531496 0.002354065 0.019136742 0.014140584 -0.023005947
0.0060589276 0.02338583 0.013850588 0.0069337785 -0.0013346858 -0.0030329023 -0.013059722 -0.010085961

fc.bias f4 [10]
00000000: 5cfc b5bb a000 4ebb 4004 493c 560b bd3c
00000010: 342b 363c 9415 5b3c a051 89ba d8ff 043c
00000020: acbf bbbb acae c8bb
-0.005553765 -0.0031433478 0.01226908 0.023076694 0.011118699 0.013371844 -0.0010476597 0.0081176385
-0.005729636 -0.006124338
